model.onnx (onnx, 761137 bytes, 8 tensors)

sequential/dense_1/MatMul/ReadVariableOp:0 f4 [150, 43]
-0.12807107 0.1269177 -0.069434024 -0.1586608 -0.16177511 -0.17759773 -0.1484546 0.0032521414
-0.055466797 0.10760888 0.104726486 -0.09990697 -0.0038486633 -0.06618728 -0.12497087 -0.098089606
-0.02447606 0.0056708427 0.044527765 0.14670081 -0.0036239878 -0.0517772 0.15779689 -0.018900344
0.09118731 0.019324534 -0.004337443 0.037281472 -0.2536616 0.05210607 0.15831505 -0.05357445
-0.037929785 0.18276499 0.2495943 -0.030724121 0.0028950453 0.03506842 0.053913124 0.061874643
-0.02369614 -0.17899817 -0.032028403 -0.062722616 -0.0076465555 0.06677178 -0.044792708 -0.080144115
-0.04556737 -0.24950655 0.12826717 0.14415525 0.12732042 -0.07378445 -0.07099852 0.15441883
-0.17101811 -0.0050588963 0.12159636 0.12134076 -0.21590345 -0.17316897 -0.17239678 -0.03290688
-0.053610884 -0.008289253 0.025686072 -0.28521916 -0.097249866 -0.1456879 -0.31571615 0.111612804
0.027555853 -0.15352996 -0.13305055 0.039327938 -0.024905095 0.0798826 -0.13476874 -0.107917406
-0.2288572 -0.07252838 -0.16461495 0.13975467 0.08898147 -0.20219344 -0.09832528 -0.14405182
-0.010278673 -0.2626679 -0.1396891 -0.08128037 -0.21257357 -0.09951265 -0.0506036 -0.08221426
-0.1893118 -0.09044436 -0.14235745 0.0714719 0.16344802 -0.19280931 0.014653958 0.103349134
-0.06626682 -0.24053115 0.057154153 -0.07004138 -0.17456159 0.041937046 -0.05939006 0.06646931
-0.14812817 -0.08179019 -0.03260097 0.0029220947 -0.07169181 -0.140811 -0.094122745 -0.21312967
0.10419845 -0.1626061 -0.031825177 -0.0181587 0.10890783 0.16170746 0.08398401 -0.16768062
-0.058750544 0.075739354 0.0230894 -0.06424526 -0.031030448 0.083122395 1.3196417e-05 -0.082764775
-0.069261 -0.12784457 0.16363063 -0.106587 0.035543025 -0.0343918 -0.10563159 -0.07802913
-0.15205997 -0.08095789 0.070243485 0.009311902 -0.14574291 0.0012909244 -0.13593838 0.07576071
-0.09890828 -0.060064573 0.10055844 -0.10013996 0.031916592 -0.23574124 0.15188384 0.016905367
0.0028970158 0.08446572 -0.06752873 -0.014084583 0.07037228 0.12910953 0.0008684878 -0.07487288
0.14380072 -0.099887796 -0.10351514 -0.13281028 -0.0038185176 -0.041925855 0.12809505 -0.1953436
-0.046300497 -0.19497427 -0.06702032 -0.15821244 0.05107225 -0.11452503 -0.008293796 -0.105339155
0.055203054 -0.032768305 -0.12703526 0.15663767 -0.11772014 0.054640852 0.04365888 -0.24907403
-0.0030053991 -0.0076389033 0.19843385 -0.041432425 -0.23516607 -0.17462485 -0.05771747 0.14112142
0.030064099 -0.08311475 -0.17051311 -0.11295811 -0.25264776 -0.042471137 -0.11718383 0.01509225
-0.16555588 -0.066874556 -0.02406272 -0.24433327 0.017308602 -0.17212866 -0.12534216 -0.21082139
0.01584946 0.11908592 0.06595734 0.01408384 0.090730675 0.12156953 0.08195382 -0.14988053
0.0033391276 0.09630455 -0.022196319 0.121347405 -0.11203881 -0.20943739 0.08079916 -0.013039025
-0.06681782 -0.23479456 0.0022088226 -0.34042355 0.13563126 -0.31054047 0.02904494 0.1736619
-0.2287875 0.074077584 -0.027505165 -0.18666665 -0.14699675 0.06416758 0.13504621 0.12030486
-0.18083195 -0.13706034 -0.035775524 -0.13796195 -0.21988478 -0.08934489 -0.09867612 0.072880395
00000000: 1025 03be b7f6 013e 6d33 8ebd fa77 22be
00000010: 60a8 25be 2edc 35be 7c04 18be e121 553b
00000020: 2731 63bd 0b62 dc3d d77a d63d 079c ccbd
00000030: db39 7cbb 328d 87bd baf0 ffbd 34e3 c8bd
00000040: 0582 c8bc 7ad2 b93b bf62 363d bd38 163e
00000050: 6d80 6dbb 5414 54bd 8295 213e e5d4 9abc
00000060: 6ac0 ba3d 7c4e 9e3c 1c21 8ebb 75b4 183d
00000070: efdf 81be 2d6d 553d 571d 223e e270 5bbd
00000080: 435c 1bbd bf26 3b3e a695 7f3e 27b1 fbbc
00000090: cdba 3d3b e7a3 0f3d 02d4 5c3d 4470 7d3d
000000a0: 681e c2bc 4c4b 37be 3730 03bd b774 80bd
000000b0: f58f fabb a5bf 883d 8f78 37bd 9922 a4bd
000000c0: daa4 3abd a57e 7fbe 7858 033e 6f9d 133e
000000d0: 4960 023e 4d1c 97bd ac67 91bd f81f 1e3e
000000e0: 5f1f 2fbe 19c5 a5bb 8307 f93d 8181 f83d
000000f0: cb15 5dbe 3553 31be c888 30be 5dc9 06bd
00000100: 1697 5bbd a6cf 07bc 996b d23c 3f08 92be
00000110: f02a c7bd 352f 15be 8ca5 a1be 4195 e43d
00000120: d0bc e13c f536 1dbe 673e 08be 5516 213d
00000130: c505 ccbc 7d99 a33d d100 0abe cd03 ddbd
00000140: 8b59 6abe c289 94bd d290 28be d91b 0f3e
00000150: eb3b b63d cc0b 4fbe c45e c9bd 5282 13be
00000160: e167 28bc 687c 86be a90a 0fbe 5376 a6bd
00000170: e3ac 59be 4acd cbbd b845 4fbd f35f a8bd
00000180: f4da 41be e53a b9bd 27c6 11be dc5f 923d
00000190: eb5e 273e ce6f 45be 2817 703c b6a8 d33d
000001a0: e6b6 87bd cc4d 76be 791a 6a3d db71 8fbd
000001b0: 46c0 32be 2ec6 2b3d fe42 73bd 1021 883d
000001c0: e9ae 17be 9d81 a7bd 9888 05bd 9d80 3f3b
000001d0: 28d3 92bd c230 10be 6dc3 c0bd aa3e 5abe
000001e0: ff65 d53d 3782 26be 1e5b 02bd 8ec1 94bc
000001f0: 120b df3d a496 253e cfff ab3d 78b4 2bbe
00000200: 69a4 70bd 3c1d 9b3d fb25 bd3c 0593 83bd
00000210: 9133 febc 133c aa3d 2e66 5d37 9480 a9bd
00000220: b6d8 8dbd b0e9 02be ca8e 273e 494a dabd
00000230: 9095 113d 6bde 0cbd 6055 d8bd bdcd 9fbd
00000240: 9cb5 1bbe 40cd a5bd d1db 8f3d f390 183c
00000250: a13d 15be 3c34 a93a 6e33 0bbe 6e28 9b3d
00000260: 6d90 cabd 4506 76bd 95f1 cd3d 2e16 cdbd
00000270: f9ba 023d 2766 71be 7087 1b3e 207d 8a3c
00000280: dcdb 3d3b 5dfc ac3d 814c 8abd 06c3 66bc
00000290: 581f 903d 4a35 043e 3bab 633a f456 99bd
000002a0: 7f40 133e f991 ccbd bfff d3bd 6bff 07be
000002b0: 1840 7abb 72ba 2bbd 592b 033e 2708 48be
000002c0: 97a5 3dbd 56a7 47be f341 89bd 7102 22be
000002d0: 2331 513d 198c eabd b4e2 07bc 0ebc d7bd
000002e0: 991c 623d 0f38 06bd 8815 02be a065 203e
000002f0: 4217 f1bd 16cf 5f3d a7d3 323d 430d 7fbe
00000300: 3bf6 44bb c44f fabb 3e32 4b3e 0cb5 29bd
00000310: 60cf 70be dbd0 32be 2769 6cbd 2282 103e
00000320: fc48 f63c 1138 aabd fd9a 2ebe 9556 e7bd
00000330: 0c5b 81be 37f6 2dbd 13fe efbd 7c45 773c
00000340: 7b87 29be 87f5 88bd 2e1f c5bc 8032 7abe
00000350: c5ca 8d3c 7f42 30be b259 00be 90e1 57be
00000360: bad6 813c 52e3 f33d a414 873d e8bf 663c
00000370: 01d1 b93d 72f9 f83d 68d7 a73d 487a 19be
00000380: 44d5 5a3b 523b c53d 0ed5 b5bc fd84 f83d
00000390: 9b74 e5bd c176 56be 087a a53d a2a1 55bc
000003a0: c8d7 88bd fc6d 70be e5c1 103b ff4b aebe
000003b0: ece2 0a3e 29ff 9ebe a7ef ed3c 6dd4 313e
000003c0: 4547 6abe fdb5 973d 8352 e1bc 8b25 3fbe
000003d0: 5186 16be 4b6a 833d 8e49 0a3e 6562 f63d
000003e0: 032c 39be 8c59 0cbe 5b89 12bd e645 0dbe
000003f0: 7a29 61be 74fa b6bd b516 cabd 5142 953d

sequential/dense_1/BiasAdd/ReadVariableOp:0 f4 [43]
-0.46315938 -0.14916705 -0.13819782 0.3314611 0.101216346 0.3419283 0.24535893 0.019823037
0.41506183 -0.13523729 0.05208975 0.017441893 -0.10658971 -0.30829182 -0.26116356 -0.10301965
-0.2862892 -0.25199795 -0.15911086 0.097113565 0.24687858 -0.2784677 -0.24566947 -0.26556215
-0.11218537 0.16419865 0.14610331 -0.022488259 0.08031707 -0.08328077 0.106156714 0.1543686
0.13998063 0.0082557965 -0.2639608 -0.077863 -0.16900389 -0.19946183 0.28075814 -0.09024573
-0.02043537 -0.0573243 -0.12395736
00000000: 3a23 edbe 3fbf 18be bb83 0dbe 45b5 a93e
00000010: 844a cf3d 3a11 af3e 5f3f 7b3e ec63 a23c
00000020: fc82 d43e a57b 0abe 105c 553d 4de2 8e3c
00000030: b54b dabd 6dd8 9dbe 3bb7 85be f7fb d2bd
00000040: 7f94 92be e005 81be f5ed 22be 7ae3 c63d
00000050: bdcd 7c3e 5293 8ebe c790 7bbe c3f7 87be
00000060: 71c1 e5bd b123 283e 1b9c 153e 4c39 b8bc
00000070: 477d a43d 1c8f aabd b168 d93d cd12 1e3e
00000080: 1557 0f3e 5243 073c df25 87be a376 9fbd
00000090: 5b0f 2dbe b93f 4cbe 88bf 8f3e c1d2 b8bd
000000a0: 1468 a7bc e3cc 6abd 5bdd fdbd

sequential/dense/MatMul/ReadVariableOp:0 f4 [1152, 150]
0.009862699 0.033013694 -0.008984225 -0.0061378093 -0.019189632 0.0555887 -0.04482165 0.072887495
0.039141055 0.06960913 -0.030701514 -0.0831425 0.08960449 -0.03170079 0.062552765 -0.028139094
-0.0007665605 0.013700743 -0.018311067 0.03787273 0.009071948 0.013000957 -0.0035865007 -0.105798535
0.07675351 0.03694928 -0.026580356 0.07537527 0.08009003 -0.06656124 0.03604997 0.048503544
-0.018589094 -0.04867392 0.025271142 0.09091846 -0.073590234 0.03628851 0.022506857 0.019170253
-0.041933384 0.009027469 -0.04838651 0.01349542 0.049112417 -0.05546449 0.13982773 -0.01972417
-0.041410398 -0.016675044 0.034418423 0.009467641 0.025779583 0.0339136 -0.017456032 0.01748808
-0.051778093 -0.012642482 -0.012210008 0.026118247 -0.010220866 -0.040034555 -0.07304135 0.101663165
-0.0072837705 -0.006821385 0.04918636 0.031847008 -0.117016524 0.009567405 -0.05582583 0.004380112
-0.018229019 0.08072382 0.01311242 0.05689098 0.022030374 0.089875564 -0.004755839 -0.018999757
-2.3216484e-05 -0.07565872 0.12221907 0.061815143 -0.032338947 0.09665223 -0.12563588 0.015111826
0.037294254 -0.05246253 -0.06571417 -0.04523123 -0.010426905 -0.058924906 0.037533406 0.06847731
0.057610724 0.034615938 0.05699858 0.059183624 0.02619573 -0.045788243 -0.028287437 -0.04717856
-0.008329395 -0.09883251 -0.009690593 0.03943201 0.04779503 -0.041290034 0.07012454 0.090740025
0.049301326 -0.045927033 -0.04325923 -0.09343241 0.024593912 0.051841054 -0.0967674 0.025451949
-0.090697415 -0.022556068 -0.032286398 0.037872974 0.06766653 0.012461396 0.03330657 -0.06495065
0.024397656 -0.059029903 -0.10708631 -0.08406916 -0.075569086 0.02203371 -0.021575406 0.0007847776
0.08454932 0.002025622 -0.10323442 0.06400205 0.014178132 -0.027659308 -0.15489148 -0.0117857875
-0.016852833 -0.0116560105 -0.0055284286 0.020287665 0.0072517423 0.14575005 0.020456703 -0.036139023
-0.059614222 0.022023156 0.0053019673 -0.053098653 -0.003876321 0.00082901714 -0.061196495 0.009418979
-0.06546899 0.05733969 0.030627944 0.039472587 -0.026121933 -0.07524362 0.004818666 -0.013040729
0.041720532 0.03120286 0.0830635 -0.036294833 0.06661654 -0.044344142 -0.04376716 -0.025943276
0.028466206 -0.03387181 -0.09104122 -0.049614724 0.012054397 0.009794961 -0.035301533 0.031538315
0.011612587 0.034522697 -0.055788122 -0.013284445 -0.0009278357 0.022364838 0.03909484 -0.05802606
-0.04833503 0.028994482 0.06871554 0.011562832 0.037354697 -0.023488091 -0.0012439223 -0.045502994
0.06289569 0.09835028 -0.09383757 -0.031488273 0.015109626 0.07076725 0.02854395 0.049466852
0.0014786074 0.043675646 -0.040137034 -0.030425705 -0.008119191 0.04670754 -0.0070992657 -0.0037332673
-0.0018799901 -0.01828557 -0.06682226 -0.058608092 0.048360582 0.021413038 -0.011285689 -0.04372934
0.03316258 -0.0049037556 -0.05535653 0.023057694 -0.05487895 0.01223245 0.05492512 -0.0038841963
-0.03646016 0.053580865 -0.020043502 0.013728086 -0.056700762 0.013359398 -0.058790922 0.052738506
0.06286467 -0.09608396 0.001474981 0.0035642036 -0.016598588 0.013155967 -0.03424464 0.03090478
0.053699292 -0.041546658 0.040418763 0.00010295212 -0.082055345 -0.0285712 -0.03585219 -0.053366028
00000000: 2897 213c 5e39 073d 9232 13bc ad1f c9bb
00000010: 9333 9dbc fab0 633d e896 37bd 0a46 953d
00000020: 5f52 203d 3b8f 8e3d be81 fbbc 9d46 aabd
00000030: 8f82 b73d b0d8 01bd aa1b 803d f583 e6bc
00000040: 01f3 48ba 1579 603c 1701 96bc 7020 1b3d
00000050: 82a2 143c f701 553c 7f0b 6bbb e7ac d8bd
00000060: f230 9d3d 2158 173d 0cbf d9bc 595e 9a3d
00000070: 3e06 a43d 4251 88bd 22a9 133d a7ab 463d
00000080: 2848 98bc 4e5e 47bd 6d05 cf3c 7533 ba3d
00000090: 7ab6 96bd 43a3 143d 4d60 b83c ef0a 9d3c
000000a0: 57c2 2bbd f3e7 133c ef30 46bd e51b 5d3c
000000b0: 1a2a 493d bc2e 63bd 002f 0f3e 9594 a1bc
000000c0: f39d 29bd 1a9a 88bc 55fa 0c3d 2a1e 1b3c
000000d0: b42f d33c fde8 0a3d f4ff 8ebc 2943 8f3c
000000e0: 4415 54bd 6a22 4fbc 7c0c 48bc eff5 d53c
000000f0: 6b75 27bc 46fb 23bd b496 95bd c734 d03d
00000100: b2ac eebb ed85 dfbb a377 493d 0272 023d
00000110: 5ca6 efbd 9bc0 1c3c a0a9 64bd 0b87 8f3b
00000120: 0655 95bc 8852 a53d 7ad5 563c 8406 693d
00000130: 0b79 b43c ae10 b83d ded6 9bbb 61a5 9bbc
00000140: 05c1 c2b7 f6f2 9abd fe4d fa3d e031 7d3d
00000150: d875 04bd 9bf1 c53d b1a6 00be 9897 773c
00000160: dcc1 183d f3e2 56bd 2795 86bd 6244 39bd
00000170: 9cd5 2abc 3e5b 71bd a1bc 193d d53d 8c3d
00000180: 39f9 6b3d 71c9 0d3d 5877 693d 876a 723d
00000190: 6d98 d63c 748c 3bbd 0ebb e7bc 4e3e 41bd
000001a0: 0478 08bc b368 cabd 4bc5 1ebc 7683 213d
000001b0: b9c4 433d bd1f 29bd 749d 8f3d e8d5 b93d
000001c0: 30f0 493d fc1d 3cbd 9730 31bd 7e59 bfbd
000001d0: 2c79 c93c 4957 543d fd2d c6bd 9b80 d03c
000001e0: 91bf b9bd 81c7 b8bc be3e 04bd b120 1b3d
000001f0: c094 8a3d e22a 4c3c 786c 083d d904 85bd
00000200: 98dd c73c 57c9 71bd 1150 dbbd 742c acbd
00000210: f7c3 9abd 0a80 b43c e8be b0bc 89b9 4d3a
00000220: 3228 ad3d 4cc0 043b 916c d3bd 8213 833d
00000230: 654b 683c c695 e2bc df9b 1ebe 2d19 41bc
00000240: f40e 8abc daf8 3ebc d227 b5bb 5132 a63c
00000250: 06a0 ed3b 803f 153e d194 a73c 8306 14bd
00000260: 0b2e 74bd e869 b43c 20bc ad3b f97d 59bd
00000270: e009 7ebb 6652 593a 2da9 7abd 1052 1a3c
00000280: 9b14 86bd 06dd 6a3d 74e7 fa3c 02ae 213d
00000290: aafd d5bc 5419 9abd e6e5 9d3b c8a8 55bc
000002a0: 26e3 2a3d 249d ff3c 321d aa3d e4a9 14bd
000002b0: 416e 883d 34a2 35bd 3245 33bd fe86 d4bc
000002c0: f631 e93c 2bbd 0abd d273 babd cf38 4bbd
000002d0: ce7f 453c 0b7b 203c 5798 10bd 522e 013d
000002e0: b842 3e3c ac67 0d3d 1682 64bd 00a7 59bc
000002f0: 003a 73ba 7736 b73c e921 203d bcac 6dbd
00000300: f4fa 45bd d685 ed3c bcba 8c3d 0872 3d3c
00000310: 3d01 193d 196a c0bc 1b0b a3ba 5961 3abd
00000320: 75cf 803d df6b c93d e92d c0bd d9f9 00bd
00000330: 5d8e 773c 6cee 903d 00d5 e93c c19d 4a3d
00000340: d5cd c13a 3ce5 323d bb66 24bd 543f f9bc
00000350: 5b06 05bc 6850 3f3d f5a0 e8bb d5a9 74bb
00000360: 006a f6ba 9fcb 95bc 1cda 88bd 0a0f 70bd
00000370: bf15 463d 656a af3c 9ce7 38bc 891d 33bd
00000380: 7cd5 073d afaf a0bb 87bd 62bd 7de3 bc3c
00000390: c0c8 60bd 9d6a 483c 2af9 603d 008e 7ebb
000003a0: 4057 15bd 9c77 5b3d 4532 a4bc c4eb 603c
000003b0: 0f3f 68bd 60e1 5a3c c0ce 70bd 5504 583d
000003c0: 31bf 803d abc7 c4bd 2654 c13a 6a95 693b
000003d0: c3f9 87bc 208c 573c 1c44 0cbd 052c fd3c
000003e0: caf3 5b3d d42c 2abd 258e 253d 00e8 d738
000003f0: a20c a8bd 260e eabc bfd9 12bd 5696 5abd

sequential/dense/BiasAdd/ReadVariableOp:0 f4 [150]
-0.074864544 0.11847304 0.02449845 -0.040719524 -0.07263578 0.14248899 -0.10000314 0.27184287
0.11515303 0.19464368 -0.0544567 0.09662876 0.067764334 0.0856094 0.018095996 -0.0031935538
0.015977632 0.30307072 -0.09735253 0.45380744 0.23888087 -0.006999906 0.14780031 0.1826821
0.26533067 0.15167971 -0.0024174503 0.27852824 0.049325347 0.13849829 0.06268294 0.31193343
0.21421266 0.032992102 0.17753643 0.3141788 0.18077853 0.16118763 -0.014061074 0.2129831
0.060726766 0.0066775535 0.14915387 0.049295522 0.04042816 0.13876683 0.2633372 0.15712467
0.017601173 -0.064767785 0.3774565 0.2305649 0.17000116 0.15977006 0.011399479 0.17807904
0.2622998 0.15882032 0.23952933 0.12076639 0.19552296 0.3696776 0.4606029 0.34639573
0.3336823 0.08558701 0.32301497 -0.105746046 0.29478416 0.3866745 0.17603332 0.20054479
0.2764221 0.14970769 0.5039425 -0.0057662376 0.085582346 0.07369875 0.25253358 0.0038231993
0.04135804 0.1949028 0.32397118 0.09074169 -0.099883735 0.059396356 0.12263521 0.25588852
-0.0903781 0.023519248 0.12178743 0.20664153 0.065570444 0.20379649 0.10253414 0.247628
-0.02767879 0.12554234 0.20474143 0.19258629 0.22641718 0.061240878 0.11460332 0.07833619
0.22015683 -0.059759013 0.025846539 0.228246 0.4637607 0.119697034 -0.060070496 0.25360876
0.36504656 0.072420165 0.25829944 0.30326042 -0.052326426 -0.070060946 0.20878565 0.0941988
-0.06272036 -0.10367047 -0.03915065 0.08767457 0.20120227 0.0064141527 8.07849e-06 0.00919773
0.005019921 0.13556969 0.05471571 -0.0155276535 0.11458403 0.018731998 0.1297493 0.29142034
0.2319151 0.047072988 -0.07358742 0.39722466 0.14684738 0.0077642296 -0.050299384 0.06704627
0.066392876 0.0056077526 0.31754857 0.35927233 0.0005762897 0.18137066
00000000: 9552 99bd fea1 f23d f9b0 c83c 84c9 26bd
00000010: 11c2 94bd a2e8 113e 72ce ccbd fd2e 8b3e
00000020: 5ad5 eb3d ac50 473e fd0d 5fbd 4de5 c53d
00000030: 07c8 8a3d fb53 af3d 0e3e 943c f14a 51bb
00000040: 86e3 823c 162c 9b3e c360 c7bd 7359 e83e
00000050: 309d 743e 785f e5bb f758 173e 0411 3b3e
00000060: 6cd9 873e ed51 1b3e 166e 1ebb 419b 8e3e
00000070: 6009 4a3d 7fd2 0d3e ea5f 803d bdb5 9f3e
00000080: 905a 5b3e ba22 073d 1ccc 353e 0bdc a03e
00000090: 021e 393e 5f0e 253e 6b60 66bc 3e18 5a3e
000000a0: a1bc 783d 61cf da3b cbbb 183e 1aea 493d
000000b0: 0098 253d e418 0e3e 22d4 863e 4ae5 203e
000000c0: 5630 903c f9a4 84bd fa41 c13e 3519 6c3e
000000d0: c914 2e3e c39a 233e e1c4 3a3c 5a5a 363e
000000e0: 294c 863e cba1 223e 2d47 753e 5e54 f73d
000000f0: 2c37 483e 6246 bd3e 25d4 eb3e c85a b13e
00000100: 68d8 aa3e 3e48 af3d 3862 a53e 6291 d8bd
00000110: f3ed 963e 33fa c53e 1442 343e 9d5b 4d3e
00000120: 3387 8d3e f94c 193e 6002 013f b5f2 bcbb
00000130: cc45 af3d 5fef 963d 154c 813e a48e 7a3b
00000140: 0c67 293d 9994 473e 8ddf a53e c7d6 b93d
00000150: d88f ccbd 9849 733d 2b28 fb3d d203 833e
00000160: 2718 b9bd 70ab c03c b06b f93d d699 533e
00000170: cc49 863d 07b0 503e 6bfd d13d 3292 7d3e
00000180: a1be e2bc 2c8e 003e bda7 513e 5735 453e
00000190: e8d9 673e b7d7 7a3d 25b5 ea3d b96e a03d
000001a0: cb70 613e dec5 74bd 1fbc d33c 52b9 693e
000001b0: 0b72 ed3e b823 f53d 7b0c 76bd 02d9 813e
000001c0: 62e7 ba3e 0651 943d d33f 843e f344 9b3e
000001d0: 3c54 56bd 1d7c 8fbd e8cb 553e 4deb c03d
000001e0: 8873 80bd 2f51 d4bd 6f5c 20bd ba8e b33d
000001f0: f807 4e3e d02d d23b da88 0737 13b2 163c
00000200: 267e a43b c8d2 0a3e 951d 603d b367 7ebc
00000210: 08ab ea3d d973 993c 00dd 043e 0c35 953e
00000220: 277b 6d3e 9bcf 403d 00b5 96bd 0861 cb3e
00000230: 295f 163e 146b fe3b ba06 4ebd 8e4f 893d
00000240: fdf8 873d 3dc1 b73b ba95 a23e 8bf2 b73e
00000250: 2612 173a 3bb9 393e

sequential/conv2d_1/Conv2D/ReadVariableOp:0 f4 [32, 32, 3, 3]
-0.010572275 -0.029385569 -0.048677992 0.038532145 -0.12655202 -0.059316162 -0.08454184 -0.11779531
-0.021419264 -0.1580551 -0.16437061 -0.057078574 -0.013527942 -0.08525852 -0.030450646 -0.01513478
-0.009563541 0.06329326 -0.0005019453 0.03036988 0.022042325 -0.109042674 -0.03209269 -0.106372304
0.05162268 -0.07173831 0.001002405 -0.039564785 -0.14633861 -0.10595413 -0.113519445 -0.059772942
0.033277307 -0.055326942 -0.008697401 0.075291134 0.0022641192 0.10625392 -0.033404298 -0.05245744
-0.0041683367 0.058891572 0.14335336 -0.094963305 -0.019328209 -0.0854005 -0.008250479 -0.033849493
-0.09995461 -0.045242634 -0.010679498 0.08201897 0.004912607 -0.14707886 0.023853933 0.08853808
-0.033985503 -0.12630573 -0.07201316 -0.02677024 0.0110154515 -0.15654598 0.0052677887 -0.1322997
-0.14952789 -0.060033727 0.0073053585 -0.11380196 0.020135075 -0.0009330678 0.0413975 0.09160228
-0.08683623 -0.069274865 0.030855015 0.032737147 0.020354502 -0.036965605 0.01963678 0.017242122
-0.042050943 0.054516014 -0.078352675 -0.1448529 -0.10883825 -0.072689265 0.053243946 0.06680282
-0.13290597 0.033208143 0.068065554 -0.036723614 -0.115233235 -0.072003484 0.008162573 0.097180784
-0.05485451 0.07623134 -0.08528489 0.035726644 -0.020639153 -0.0077947737 -0.09836274 -0.05433284
0.11620408 0.007081892 0.0046594883 -0.0788912 -0.04873843 0.031954236 -0.100189656 0.0013013018
0.11052162 -0.041312207 0.063436426 0.042339668 -0.122731775 -0.03968477 0.0496516 0.03837269
0.03727633 -0.09499568 0.07586865 0.07738655 0.071656995 -0.0125864055 -0.0958062 -0.01717533
-0.026163008 -0.1342733 0.009865373 0.07977153 0.101671726 0.019754322 -0.14909603 -0.08419237
-0.03709805 0.005952593 -0.028637461 -0.035226505 -0.09615187 -0.020869728 -0.12142742 -0.07672741
-0.05181443 -0.03636475 0.011192548 0.041576274 0.077834554 0.06600414 -0.08435866 0.029330092
-0.14103106 -0.054236125 0.10125912 0.05997215 0.012035791 0.004711986 0.05650952 0.083847925
-0.012483687 -0.042131234 0.10181601 0.0151330875 0.015587934 0.1593915 0.0030811199 0.04512489
0.024696646 -0.0655273 -0.10738476 0.03122524 -0.047071163 -0.004530255 -0.02154667 0.0039081597
0.07797671 -0.100581996 -0.026606018 0.011467571 -0.061403204 -0.106282376 -0.0055625513 0.0039486126
-0.15695757 -0.09496872 -0.110307924 -0.0150302 0.034896284 -0.0068748537 -0.024286311 -0.040273644
0.056823194 0.060604826 -0.031559445 -0.010571211 -0.093007475 0.032738402 -0.06360535 0.009877469
-0.06480971 0.032311868 -0.07687779 0.09051216 0.044426624 0.06782045 0.026544435 0.07013937
-0.17257856 -0.020457758 -0.029753068 -0.12222043 0.08890307 0.06691572 0.014880852 0.045067392
-0.08655462 -0.055595543 -0.04724314 0.07974797 -0.064044714 -0.0012305147 0.09891138 -0.06594099
-0.037621718 0.007725108 -0.0020332264 -0.113415815 -0.0028880714 -0.10149465 0.002530261 0.025663434
-0.09463709 -0.033844307 -0.0846739 -0.021251215 -0.10588708 -0.11825278 0.025595548 -0.11034367
0.049656197 -0.03337261 -0.013956482 -0.17085269 0.0016199034 0.02254712 0.06774287 0.0618357
0.061824452 -0.011791312 0.07912248 -0.08141372 -0.06201314 -0.08019325 -0.100797325 0.071228385
00000000: 5637 2dbc 01ba f0bc 9362 47bd e2d3 1d3d
00000010: da96 01be 81f5 72bd 4624 adbd ab3e f1bd
00000020: 7477 afbc 32d9 21be c550 28be 39cb 69bd
00000030: 4da4 5dbc 059c aebd a273 f9bc def7 77bc
00000040: 66b0 1cbc e69f 813d fb94 03ba 41ca f83c
00000050: 1b92 b43c c451 dfbd a073 03bd b9d9 d9bd
00000060: 4e72 533d 89eb 92bd 2163 833a af0e 22bd
00000070: cad9 15be 7bfe d8bd e27c e8bd 79d4 74bd
00000080: c94d 083d 819e 62bd 8b7f 0ebc 3d32 9a3d
00000090: 9e61 143b a89b d93d f2d2 08bd 9ddd 56bd
000000a0: 8b96 88bb 4a38 713d 39cb 123e 1f7c c2bd
000000b0: 3156 9ebc 75e6 aebd 042d 07bc c4a5 0abd
000000c0: 01b5 ccbd 5750 39bd 10f9 2ebc 90f9 a73d
000000d0: eff9 a03b d79b 16be 5369 c33c 7453 b53d
000000e0: 6234 0bbd 4a56 01be a37b 93bd 434d dbbc
000000f0: 277a 343c 974d 20be 6a9d ac3b 9379 07be
00000100: d71d 19be ede5 75bd ca61 ef3b 0111 e9bd
00000110: 50f2 a43c 1f99 74ba 6d90 293d fa99 bb3d
00000120: 31d7 b1bd fbdf 8dbd a8c3 fc3c 6317 063d
00000130: 7cbe a63c 3f69 17bd 50dd a03c 5a3f 8d3c
00000140: 9c3d 2cbd 2f4c 5f3d 5e77 a0bd 5254 14be
00000150: 97e6 debd 1cde 94bd 5316 5a3d ebcf 883d
00000160: 8118 08be 4305 083d f465 8b3d 806b 16bd
00000170: 67ff ebbd 9076 93bd 50bc 053c b806 c73d
00000180: 1faf 60bd 2d1f 9c3d d8a9 aebd 1a56 123d
00000190: 7113 a9bc 4d6b ffbb 6772 c9bd 1d8c 5ebd
000001a0: 68fc ed3d 370f e83b 9fae 983b b691 a1bd
000001b0: f3a1 47bd 72e2 023d 3c30 cdbd 7190 aa3a
000001c0: 2959 e23d fd36 29bd f5ea 813d 5c6c 2d3d
000001d0: cc5a fbbd 7f8c 22bd 7a5f 4b3d af2c 1d3d
000001e0: 11af 183d 188d c2bd 0661 9b3d d77c 9e3d
000001f0: e7c0 923d 3637 4ebc 0a36 c4bd 47b3 8cbc
00000200: ce53 d6bc f17e 09be 60a2 213c 425f a33d
00000210: 4439 d03d d1d3 a13c a1ac 18be 0d6d acbd
00000220: 20f4 17bd f80d c33b 1c99 eabc ab49 10bd
00000230: 46eb c4bd fef6 aabc f0ae f8bd 4323 9dbd
00000240: 5e3b 54bd 34f3 14bd f360 373c e24b 2a3d
00000250: b967 9f3d 2e2d 873d 3cc4 acbd a945 f03c
00000260: 726a 10be b326 5ebd f160 cf3d 5ba5 753d
00000270: c431 453c 0167 9a3b 8776 673d 76b8 ab3d
00000280: 6188 4cbc cd91 2cbd ea84 d03d c5f0 773c
00000290: 8964 7f3c 8637 233e 9dec 493b e0d4 383d
000002a0: 9f50 ca3c 2d33 86bd 8bec dbbd 13cc ff3c
000002b0: b1cd 40bd 8972 94bb a482 b0bc 0510 803b
000002c0: 41b2 9f3d effd cdbd ddf4 d9bc 7be2 3b3c
000002d0: ed81 7bbd 93aa d9bd 1046 b6bb 5d63 813b
000002e0: 7cb9 20be f67e c2bd 1fe9 e1bd 3a41 76bc
000002f0: 68ef 0e3d 7446 e1bb 16f4 c6bc faf5 24bd
00000300: 70bf 683d c43c 783d 7a44 01bd df32 2dbc
00000310: b47a bebd b418 063d 8643 82bd 1cd5 213c
00000320: f4ba 84bd 7359 043d 1a72 9dbd 705e b93d
00000330: b1f8 353d 73e5 8a3d b773 d93c 3ba5 8f3d
00000340: 6fb8 30be 0797 a7bc b5bc f3bc b44e fabd
00000350: d012 b63d 1c0b 893d d1ce 733c 9698 383d
00000360: 8c43 b1bd 27b8 63bd 0682 41bd e752 a33d
00000370: e029 83bd 3949 a1ba 0d92 ca3d 120c 87bd
00000380: 3b19 1abd e722 fd3b e13f 05bb 8d46 e8bd
00000390: cc45 3dbb 6ddc cfbd bcd2 253b 1f3c d23c
000003a0: 17d1 c1bd 54a0 0abd 8269 adbd 0717 aebc
000003b0: 53db d8bd 832e f2bd c1ad d13c ddfb e1bd
000003c0: 4c64 4b3d b8b1 08bd baa9 64bc 02f4 2ebe
000003d0: f052 d43a bdb4 b83c c6bc 8a3d 6e47 7d3d
000003e0: a33b 7d3d 5930 41bc f70a a23d 3dbc a6bd
000003f0: 7e01 7ebd 5c3c a4bd d46e cebd 30e0 913d

sequential/conv2d_1/BiasAdd/ReadVariableOp:0 f4 [32]
-0.012570486 -0.051490076 0.043147173 0.15810741 0.046419717 -0.038959205 -0.20442347 0.5892302
0.16053149 -0.09275426 -0.024156744 0.059651796 -0.0020236967 -0.05189213 0.3809685 0.18450889
-0.12574829 0.11153405 -0.14074442 0.18536685 -0.30915108 -0.031367805 0.004328814 0.9531923
0.006424917 0.05712525 -0.029598378 0.05453932 -0.28572914 0.08785248 -0.030200943 0.0059652156
00000000: 71f4 4dbc 42e7 52bd 17bb 303d e9e6 213e
00000010: 9a22 3e3d b093 1fbd 6354 51be cad7 163f
00000020: 5e62 243e f2f5 bdbd 5de4 c5bc 7155 743d
00000030: ff9f 04bb d88c 54bd 4e0e c33e e6ef 3c3e
00000040: 29c4 00be f76b e43d 4e1f 10be cfd0 3d3e
00000050: 0d49 9ebe 877b 00bd b9d8 8d3b 6904 743f
00000060: 1c88 d23b 2bfc 693d 4c78 f2bc 9f64 5f3d
00000070: 174b 92be 00ec b33d f867 f7bc db77 c33b

sequential/conv2d/Conv2D/ReadVariableOp:0 f4 [32, 3, 3, 3]
0.052854177 -0.01703474 -0.0033271315 -0.013728408 0.11429821 -0.07789955 0.02897282 -0.036330115
0.07157304 0.028992048 0.06346096 0.06363795 -0.078648806 0.028706016 -0.13546239 0.058599826
0.115423314 0.062201686 0.021012193 -0.07432369 0.050674073 -0.15051432 0.11557229 0.05448316
-0.120423146 -0.009775319 -0.124976546 -0.011455402 0.047452375 0.108431265 0.05532673 -0.05997702
0.038205184 -0.18161713 -0.11513456 0.02250996 -0.015164172 0.17030826 0.15426566 -0.102458864
0.036794405 0.13028893 -0.03457229 -0.18503623 -0.0418339 0.12672444 -0.019665685 -0.06586597
-0.004073495 0.12242418 -0.047973312 -0.0905645 -0.026032336 -0.00959563 -0.05758109 -0.04265936
-0.11985942 -0.0210237 0.110738784 -0.003957176 -0.014284832 0.11749856 -0.01976905 -0.13272923
-0.14645642 -0.15763026 0.10712534 0.02969726 0.06160513 0.12823582 0.13280405 0.04895448
-0.015904842 -0.14458415 0.027251568 0.099716485 0.103808485 -0.10571062 0.13185632 -0.12195451
0.008916506 -0.09811167 0.09837653 0.05414293 -0.104065545 -0.06885131 0.01877411 0.08414923
-0.12837584 -0.07898183 -0.009615942 0.063080765 0.06708267 0.05800158 -0.10888069 -0.15059553
0.030060913 0.07420136 0.09346608 -0.032878153 -0.09956714 0.054466013 -0.030395381 -0.04282347
0.05430795 0.0451256 0.13248836 -0.011806575 -0.10950716 0.06469996 -0.035142947 -0.060250573
0.02701571 -0.10993886 -0.023341175 -0.076322936 0.109939374 0.10334147 -0.11826218 -0.14437847
-0.1250399 -0.009628557 -0.059802853 0.037501134 0.08118902 -0.016011965 -0.123059615 0.10030289
-0.15591902 0.11228723 0.05246401 -0.006889782 -0.050097276 -0.1450136 -0.034033034 0.111684844
-0.09430914 0.005467675 -0.10062152 0.04348332 0.14449014 0.077590466 0.035702907 0.028232537
-0.16503435 0.0074918726 -0.089274526 0.020498231 -0.111035675 -0.12842345 0.08601327 0.10861055
0.11125299 -0.11769633 0.116841696 -0.024169758 -0.112814434 0.12166164 0.022376126 0.06167928
-0.14795153 -0.004800427 -0.13763435 0.058294393 -0.05459283 -0.0007002329 -0.1265356 0.11720927
0.09163039 0.07430796 0.08311731 -0.06607537 0.15755346 0.015781298 0.06706592 0.08651692
-0.13188067 -0.13541965 -0.02506451 -0.08976723 0.092741884 0.18912482 0.009424751 -0.15653767
-0.0030233911 -0.0056575695 -0.1425127 -0.20332064 -0.056426913 0.18432792 -0.05398561 -0.13659331
-0.061289676 -0.041419953 -0.12981682 -0.057286985 -0.18812302 -0.045400232 0.123076506 0.04117838
-0.099044256 0.08748618 -0.12440611 0.064801075 0.036970485 -0.12777029 -0.14369664 -0.080075026
0.15574636 0.039538097 0.078328885 0.10778553 0.01691329 -0.11380529 0.10243765 0.049894907
0.021357335 0.11399616 0.047426946 0.039332762 -0.077936105 0.005547243 0.11705142 -0.13633585
-0.18949467 0.02054276 0.012235589 -0.06079197 -0.12302436 0.046033062 0.025156181 0.07491527
-0.18750967 0.05730714 0.003761941 -0.041502506 0.099369 0.027181871 -0.12511173 0.10839607
0.054726645 -0.12770088 0.052766353 -0.0684568 -0.06382421 0.117326304 -0.025304558 0.11346652
0.123042256 -0.1293116 0.10564631 0.070425436 0.08459157 -0.009814717 0.10912717 -0.07237246
00000000: 9f7d 583d 708c 8bbc 010c 5abb 1eed 60bc
00000010: 2e15 ea3d cd89 9fbd 6858 ed3c e3ce 14bd
00000020: e394 923d bb80 ed3c d2f7 813d 9d54 823d
00000030: a012 a1bd e128 eb3c a7b6 0abe 5f06 703d
00000040: 0f63 ec3d 32c7 7e3d c321 ac3c 0537 98bd
00000050: 9e8f 4f3d 6d20 1abe 2ab1 ec3d bc29 5f3d
00000060: 69a0 f6bd a928 20bc b4f3 ffbd 70af 3bbc
00000070: 6c5d 423d 3611 de3d 489e 623d 77aa 75bd
00000080: 0a7d 1c3d d7f9 39be abcb ebbd cf66 b83c
00000090: 2673 78bc 4a65 2e3e d1f7 1d3e f4d5 d1bd
000000a0: bbb5 163d 766a 053e ac9b 0dbd 237a 3dbe
000000b0: 065a 2bbd 0dc4 013e ee19 a1bc bde4 86bd
000000c0: f47a 85bb 87b9 fa3d aa7f 44bd e179 b9bd
000000d0: c441 d5bc fd36 1dbc 26da 6bbd 95bb 2ebd
000000e0: db78 f5bd e539 acbc 04cb e23d 33ab 81bb
000000f0: ee0a 6abc 16a3 f03d b4f2 a1bc 2cea 07be
00000100: acf8 15be d469 21be 8864 db3d ab47 f33c
00000110: a955 7c3d 4050 033e c9fd 073e 7e84 483d
00000120: df4a 82bc de0d 14be ae3e df3c 2838 cc3d
00000130: 8b99 d43d cf7e d8bd 5805 073e 49c3 f9bd
00000140: 8916 123c c5ee c8bd a279 c93d fac4 5d3d
00000150: 5120 d5bd ea01 8dbd 2acc 993c 6e56 ac3d
00000160: f574 03be 3ac1 a1bd 2f8c 1dbc 7d30 813d
00000170: a462 893d 1193 6d3d d7fc debd b735 1abe
00000180: 4e42 f63c e2f6 973d 256b bf3d 3eab 06bd
00000190: dbe9 cbbd c117 5f3d bcff f8bc aa67 2fbd
000001a0: 0372 5e3d 9fd5 383d 07ab 073e 5d70 41bc
000001b0: 4a45 e0bd 6a81 843d 0df2 0fbd 4ec9 76bd
000001c0: 0d50 dd3c a027 e1bd fe35 bfbc 334f 9cbd
000001d0: e527 e13d b1a4 d33d 7133 f2bd f3d7 13be
000001e0: 760a 00be 18c1 1dbc d6f3 74bd ca9a 193d
000001f0: 6e46 a63d 862b 83bc ae06 fcbd 9a6b cd3d
00000200: 3ca9 1fbe d9f6 e53d 80e4 563d aec3 e1bb
00000210: cd32 4dbd 727e 14be 3966 0bbd 06bb e43d
00000220: 2725 c1bd 2f2a b33b a812 cebd 911b 323d
00000230: 39f5 133e c0e7 9e3d 363d 123d ec47 e73c
00000240: c4fe 28be 627e f53b 90d5 b6bd e8eb a73c
00000250: ac66 e3bd 7081 03be ba27 b03d 356f de3d
00000260: 9cd8 e33d c60a f1bd b34a ef3d a8ff c5bc
00000270: 410b e7bd bd29 f93d 234e b73c 6aa3 7c3d
00000280: 9b80 17be e64c 9dbb 05f0 0cbe 1ac6 6e3d
00000290: bb9c 5fbd d68f 37ba 8c92 01be 6a0b f03d
000002a0: b7a8 bb3d c62e 983d 6939 aa3d 8652 87bd
000002b0: b255 213e c847 813c db59 893d c82f b13d
000002c0: ba0b 07be 73ab 0abe 1654 cdbc e2d7 b7bd
000002d0: 75ef bd3d f0a9 413e 456a 1a3c 694b 20be
000002e0: 1624 46bb 2263 b9bb d9ee 11be 4933 50be
000002f0: e81f 67bd 75c0 3c3e 0420 5dbd 1edf 0bbe
00000300: e20a 7bbd f8a7 29bd b3ee 04be c2a5 6abd
00000310: 52a3 40be 98f5 39bd 890f fc3d a9aa 283d
00000320: b7d7 cabd f42b b33d a1c8 febd 6db6 843d
00000330: 5d6e 173d 37d6 02be 3625 13be 60fe a3bd
00000340: f97b 1f3e b3f2 213d e56a a03d a9be dc3d
00000350: bd8d 8a3c bf12 e9bd d5ca d13d 9a5e 4c3d
00000360: 94f5 ae3c d276 e93d c242 423d 641b 213d
00000370: f79c 9fbd a6c5 b53b a8b8 ef3d a09b 0bbe
00000380: e40a 42be 4a49 a83c c877 483c 0001 79bd
00000390: 32f4 fbbd 2a8d 3c3d 5614 ce3c 2d6d 993d
000003a0: 8902 40be e4ba 6a3d e68a 763b 88fe 29bd
000003b0: f981 cb3d 84ac de3c 4a1d 00be c2fe dd3d
000003c0: 0c29 603d 05c4 02be 8821 583d 1433 8cbd
000003d0: 44b6 82bd c648 f03d 814b cfbc 2361 e83d
000003e0: 94fd fb3d 436a 04be 185d d83d 363b 903d
000003f0: 583e ad3d e8cd 20bc 117e df3d 0338 94bd

sequential/conv2d/BiasAdd/ReadVariableOp:0 f4 [32]
-0.41797802 0.48721677 0.18138279 -0.25742522 -0.031242086 0.64332265 -0.42505231 -0.18724988
-0.07975019 0.54492253 -0.34640583 0.4603508 -0.28602692 -0.0022068068 0.07229508 -0.15267563
-0.28855592 0.004661793 -0.49261183 -0.07334311 -0.05956778 -0.044525478 -0.005308366 -0.4289505
0.14035916 -0.58054256 -0.012449398 -0.013954442 -0.16576152 -0.12986042 -0.30047297 -0.3284483
00000000: 3701 d6be 7a74 f93e 69bc 393e 3dcd 83be
00000010: 67ef ffbc cbb0 243f 75a0 d9be 6fbe 3fbe
00000020: 1154 a3bd 0b80 0b3f 1b5c b1be 1ab3 eb3e
00000030: 1f72 92be 13a0 10bb 710f 943d 0057 1cbe
00000040: 9abd 93be f4c1 983b 9e37 fcbe ea34 96bd
00000050: 58fd 73bd 5960 36bd cdf1 adbb 669f dbbe
00000060: 50ba 0f3e 709e 14bf 8ff8 4bbc 2ca1 64bc
00000070: 63bd 29be 21fa 04be 98d7 99be 602a a8be
